…
    Number of datapoints: 50000
    Root location: ./data
    Split: Train
    StandardTransform
Transform: Compose(
               RandomResizedCrop(size=(32, 32), scale=(0.2, 1.0), ratio=(0.75, 1.3333), interpolation=bicubic, antialias=True)
               RandomHorizontalFlip(p=0.5)
               ToTensor()
               Normalize(mean=[0.4914, 0.4822, 0.4465], std=[0.2023, 0.1994, 0.201])
           )
[13:51:19.793605] Sampler_train = <torch.utils.data.distributed.DistributedSampler object at 0x71e67629f0d0>
[13:51:20.250317] Model = MaskedAutoencoderViT(
  (patch_embed): PatchEmbed(
    (proj): Conv2d(3, 192, kernel_size=(4, 4), stride=(4, 4))
  )
  (blocks): ModuleList(
    (0-11): 12 x Block(
      (norm1): LayerNorm((192,), eps=1e-12, elementwise_affine=True)
      (attn): Attention(
        (qkv): Linear(in_features=192, out_features=576, bias=True)
        (attn_drop): Dropout(p=0.0, inplace=False)
        (proj): Linear(in_features=192, out_features=192, bias=True)
        (proj_drop): Dropout(p=0.0, inplace=False)
      )
      (drop_path): Identity()
      (norm2): LayerNorm((192,), eps=1e-12, elementwise_affine=True)
      (mlp): Mlp(
        (fc1): Linear(in_features=192, out_features=768, bias=True)
        (act): GELU(approximate='none')
        (fc2): Linear(in_features=768, out_features=192, bias=True)
        (drop): Dropout(p=0.0, inplace=False)
      )
    )
  )
  (norm): LayerNorm((192,), eps=1e-12, elementwise_affine=True)
  (decoder_embed): Linear(in_features=192, out_features=192, bias=True)
  (decoder_blocks): ModuleList(
    (0-7): 8 x Block(
      (norm1): LayerNorm((192,), eps=1e-12, elementwise_affine=True)
      (attn): Attention(
        (qkv): Linear(in_features=192, out_features=576, bias=True)
        (attn_drop): Dropout(p=0.0, inplace=False)
        (proj): Linear(in_features=192, out_features=192, bias=True)
        (proj_drop): Dropout(p=0.0, inplace=False)
      )
      (drop_path): Identity()
      (norm2): LayerNorm((192,), eps=1e-12, elementwise_affine=True)
      (mlp): Mlp(
        (fc1): Linear(in_features=192, out_features=768, bias=True)
        (act): GELU(approximate='none')
        (fc2): Linear(in_features=768, out_features=192, bias=True)
        (drop): Dropout(p=0.0, inplace=False)
      )
    )
  )
  (decoder_norm): LayerNorm((192,), eps=1e-12, elementwise_affine=True)
  (decoder_pred): Linear(in_features=192, out_features=48, bias=True)
)
[13:51:20.250342] base lr: 5.00e-04
[13:51:20.250346] actual lr: 5.00e-04
[13:51:20.250352] accumulate grad iterations: 1
[13:51:20.250357] effective batch size: 256
[13:51:20.251265] AdamW (
Parameter Group 0
    amsgrad: False
    betas: (0.9, 0.95)
    capturable: False
    differentiable: False
    eps: 1e-08
    foreach: None
    fused: None
    lr: 0.0005
…
ocks.6.mlp.fc2.bias', 'decoder_blocks.7.norm1.weight', 'decoder_blocks.7.norm1.bias', 'decoder_blocks.7.attn.qkv.weight', 'decoder_blocks.7.attn.qkv.bias', 'decoder_blocks.7.attn.proj.weight', 'decoder_blocks.7.attn.proj.bias', 'decoder_blocks.7.norm2.weight', 'decoder_blocks.7.norm2.bias', 'decoder_blocks.7.mlp.fc1.weight', 'decoder_blocks.7.mlp.fc1.bias', 'decoder_blocks.7.mlp.fc2.weight', 'decoder_blocks.7.mlp.fc2.bias', 'decoder_norm.weight', 'decoder_norm.bias', 'decoder_pred.weight', 'decoder_pred.bias'])
[15:21:29.205762] Model = VisionTransformer(
  (patch_embed): PatchEmbed(
    (proj): Conv2d(3, 192, kernel_size=(4, 4), stride=(4, 4))
  )
  (pos_drop): Dropout(p=0.0, inplace=False)
  (blocks): ModuleList(
    (0-11): 12 x Block(
      (norm1): LayerNorm((192,), eps=1e-12, elementwise_affine=True)
      (attn): Attention(
        (qkv): Linear(in_features=192, out_features=576, bias=True)
        (attn_drop): Dropout(p=0.0, inplace=False)
        (proj): Linear(in_features=192, out_features=192, bias=True)
        (proj_drop): Dropout(p=0.0, inplace=False)
      )
      (drop_path): Identity()
      (norm2): LayerNorm((192,), eps=1e-12, elementwise_affine=True)
      (mlp): Mlp(
        (fc1): Linear(in_features=192, out_features=768, bias=True)
        (act): GELU(approximate='none')
        (fc2): Linear(in_features=768, out_features=192, bias=True)
        (drop): Dropout(p=0.0, inplace=False)
      )
    )
  )
  (norm): LayerNorm((192,), eps=1e-12, elementwise_affine=True)
  (head): Sequential(
    (0): BatchNorm1d(192, eps=1e-06, momentum=0.1, affine=False, track_running_stats=True)
    (1): Linear(in_features=192, out_features=1000, bias=True)
  )
)
[15:21:29.205783] number of params (M): 0.19
[15:21:29.205792] base lr: 1.00e-01
[15:21:29.205797] actual lr: 1.00e-01
[15:21:29.205800] accumulate grad iterations: 1
[15:21:29.205803] effective batch size: 256
[15:21:29.206029] LARS (
Parameter Group 0
    lr: 0.1
    momentum: 0.9
    trust_coefficient: 0.001
    weight_decay: 0.0
)
[15:21:29.206119] criterion = CrossEntropyLoss()
…
    Split: Train
    StandardTransform
Transform: Compose(
               RandomResizedCrop(size=(32, 32), scale=(0.2, 1.0), ratio=(0.75, 1.3333), interpolation=bicubic, antialias=True)
               RandomHorizontalFlip(p=0.5)
               ToTensor()
               Normalize(mean=[0.4914, 0.4822, 0.4465], std=[0.2023, 0.1994, 0.201])
           )
[15:26:52.331385] Sampler_train = <torch.utils.data.distributed.DistributedSampler object at 0x7d88fca9fc90>
[15:26:52.441158] use bootstrapped MAE!
[15:26:52.804259] Model = BootstrappedMaskedAutoencoderViT(
  (patch_embed): PatchEmbed(
    (proj): Conv2d(3, 192, kernel_size=(4, 4), stride=(4, 4))
  )
  (blocks): ModuleList(
    (0-11): 12 x Block(
      (norm1): LayerNorm((192,), eps=1e-12, elementwise_affine=True)
      (attn): Attention(
        (qkv): Linear(in_features=192, out_features=576, bias=True)
        (attn_drop): Dropout(p=0.0, inplace=False)
        (proj): Linear(in_features=192, out_features=192, bias=True)
        (proj_drop): Dropout(p=0.0, inplace=False)
      )
      (drop_path): Identity()
      (norm2): LayerNorm((192,), eps=1e-12, elementwise_affine=True)
      (mlp): Mlp(
        (fc1): Linear(in_features=192, out_features=768, bias=True)
        (act): GELU(approximate='none')
        (fc2): Linear(in_features=768, out_features=192, bias=True)
        (drop): Dropout(p=0.0, inplace=False)
      )
    )
  )
  (norm): LayerNorm((192,), eps=1e-12, elementwise_affine=True)
  (decoder_embed): Linear(in_features=192, out_features=192, bias=True)
  (decoder_blocks): ModuleList(
    (0-7): 8 x Block(
      (norm1): LayerNorm((192,), eps=1e-12, elementwise_affine=True)
      (attn): Attention(
        (qkv): Linear(in_features=192, out_features=576, bias=True)
        (attn_drop): Dropout(p=0.0, inplace=False)
        (proj): Linear(in_features=192, out_features=192, bias=True)
        (proj_drop): Dropout(p=0.0, inplace=False)
      )
      (drop_path): Identity()
      (norm2): LayerNorm((192,), eps=1e-12, elementwise_affine=True)
      (mlp): Mlp(
        (fc1): Linear(in_features=192, out_features=768, bias=True)
        (act): GELU(approximate='none')
        (fc2): Linear(in_features=768, out_features=192, bias=True)
        (drop): Dropout(p=0.0, inplace=False)
      )
    )
  )
  (decoder_norm): LayerNorm((192,), eps=1e-12, elementwise_affine=True)
  (decoder_pred): Linear(in_features=192, out_features=48, bias=True)
  (decoder_last_proj): Linear(in_features=192, out_features=192, bias=True)
)
[15:26:52.804290] base lr: 5.00e-04
[15:26:52.804295] actual lr: 5.00e-04
[15:26:52.804301] accumulate grad iterations: 1
[15:26:52.804304] effective batch size: 256
[15:26:52.805366] AdamW (
Parameter Group 0
    amsgrad: False
    betas: (0.9, 0.95)
    capturable: False
    differentiable: False
    eps: 1e-08
    foreach: None
    fused: None
    lr: 0.0005
…
